paper_calculations/parameters_vector_dmps.npy (npy, 49728 bytes, 1 tensors)

array f8 [50, 124]
000000 50 ed 21 7b ae 6c ed 3f ab 46 a2 93 e1 e8 f6 bf
       0.9195167927677321 -1.4318557517002926
000010 f3 51 d6 c9 ba e8 0b c0 9c a9 a5 29 78 e3 14 c0
       -3.4886375206499394 -5.222138071762313
000020 64 70 ab e5 da 32 20 c0 91 a1 a4 47 9d 8a 2a c0
       -8.099326302697769 -13.27073120007188
000030 46 3b 1e f6 66 92 31 c0 1e 93 bf 03 e5 8b 36 c0
       -17.571883566265818 -22.546463236113702
000040 28 d0 ce 97 c5 44 44 c0 95 5e 3e 9e 74 13 45 c0
       -40.537280059798206 -42.15199640317329
000050 bf 61 59 c0 2d 64 42 c0 2a ac 74 8d f3 d0 3c c0
       -36.78264622082087 -28.816216317162038
000060 9e 05 f4 89 e4 e3 3c c0 26 f4 97 88 e9 98 3e c0
       -28.89020597655837 -30.59731343946273
000070 e1 f0 1b e4 6d 57 3e c0 50 97 45 7c d6 40 41 c0
       -30.341520554372327 -34.50654557607652
000080 2e 91 71 72 63 72 41 c0 0d 17 0d e7 89 1d 43 c0
       -34.89365988297719 -38.23077095164454
000090 bd 48 8a 66 4e 83 42 c0 1e e0 c4 57 fb 5f 45 c0
       -37.02583009483485 -42.749857874994845
0000a0 bb a8 15 f5 3c bf 44 c0 a2 10 b5 74 9a 26 46 c0
       -41.494047771049246 -44.301588619623786
0000b0 fd df f3 9b d5 24 45 c0 c6 15 14 6b 20 f2 44 c0
       -42.28776883514363 -41.89161432724681
0000c0 18 44 97 d9 ec 3c 47 c0 b3 95 02 e8 ab bf 44 c0
       -46.47597808729205 -41.497433663618175
0000d0 ac ef 64 88 68 84 41 c0 6e 46 23 83 a5 3a 42 c0
       -35.03444008759047 -36.45817603323381
0000e0 84 87 54 b4 4d 11 3f c0 17 4e ef 1e 32 06 3b c0
       -31.067591925274897 -27.024202283310014
0000f0 5f 25 57 54 b1 9f 0a c0 c9 04 eb e1 b0 8c 37 40
       -3.32797494784306 23.549574012639628
000100 66 b7 6c a8 69 8b 49 40 18 ea 17 ca f8 54 52 40
       51.08916192348879 73.32768490157503
000110 73 4d ef c6 95 80 55 40 3a 3c a7 06 3d 46 5c 40
       86.00914166802777 113.0974747307927
000120 42 98 7f 17 c7 d3 58 40 da 20 f1 46 ac c6 54 40
       99.30902659855295 83.10426496074379
000130 92 f8 eb 98 dc f5 4e 40 1c 8d 63 72 93 9b 41 40
       61.92079459688206 35.21543722020053
000140 cf e1 6b e2 7a 02 47 c0 1b 0d ff b6 51 6f 5d c0
       -46.01937513606719 -117.73936247737258
000150 b1 b1 44 98 44 03 68 c0 89 00 0b 91 cb 83 71 c0
       -192.1021233884508 -280.23719887063686
000160 c1 0c 6a 68 68 0c 7b c0 66 d7 4d 29 46 9a 82 c0
       -432.7754902021953 -595.2842584687576
000170 1a d0 aa a5 9a 40 87 c0 59 bd 6c 43 d4 4a 90 c0
       -744.0755112976797 -1042.7072884550637
000180 c0 53 b8 51 96 3d 91 c0 da 12 f2 0d fa e2 8a c0
       -1103.396796112167 -860.3720969116214
000190 2f 7f c4 44 25 94 7a c0 81 a8 fe 59 e3 04 69 40
       -425.2590987849862 200.15275287378248
0001a0 8b 98 f3 03 47 76 8b 40 a2 8f e5 b4 78 93 8a 40
       878.7846755057266 850.4339387831171
0001b0 8a 87 73 ab 1d 96 8c 40 86 5c 59 f8 53 20 8a 40
       914.7644871736277 836.0410010320054
0001c0 f5 4e 27 67 e6 3e 81 40 e2 c2 36 89 e4 f0 54 40
       551.8625014372798 83.76394872997074
0001d0 69 9c 3c 5a 45 43 71 c0 38 15 eb 5c f8 aa 80 c0
       -276.20443175960696 -533.3712709775782
0001e0 14 9e d2 6c 71 ad 0a c0 19 bc 0f 2e ff c8 13 c0
       -3.334688997437988 -4.946285934172033
0001f0 42 de e5 22 bd 52 15 c0 de ff 74 34 64 76 13 c0
       -5.330799622802774 -4.865616626397211
000200 5e 9b c0 9b 0e 1c 06 c0 95 ab 67 23 46 e8 00 40
       -2.7636997383264506 2.113415028191819
000210 21 24 6e 8a 34 f1 1d 40 1c 39 ec 48 23 db 31 40
       7.485551989529115 17.856007154151584
000220 9d 61 df c8 e4 d1 4e 40 a5 df d9 aa 8c e1 51 40
       61.639794453690435 71.52421065594406
000230 1c ab 7d d1 a9 0b 4e 40 19 70 50 4e b0 78 40 40
       60.09111994396355 32.94288042953139
000240 f2 a5 b8 e5 a1 a4 20 40 e7 b3 d8 57 6a f7 f8 3f
       8.32154767874724 1.560404151106235
000250 b3 4a 21 fe 24 bc 9b 3f 6f 76 b7 d6 ec 5f 19 c0
       0.027084901820056028 -6.343676905582114
000260 a7 f8 b7 36 31 f7 2d c0 b2 c2 0d 58 da ea 37 c0
       -14.982797346074518 -23.917394164428238
000270 e2 5a f1 d2 e4 a1 3e c0 87 c3 df 22 f3 ed 42 c0
       -30.632397827076495 -37.85898242879835
000280 33 b1 06 ac c0 2b 45 c0 8c 2a e1 f2 f9 0b 48 c0
       -42.341817382114094 -48.09356533045238
000290 34 c5 66 8d 94 f4 49 c0 e5 db f3 3a 2d cb 4a c0
       -51.91078345792849 -53.5873178187101
0002a0 40 1a 81 96 5a 22 4c c0 53 c3 07 13 3d 52 4b c0
       -56.26838952354274 -54.64248884085705
0002b0 1d 1c e7 43 84 a1 4b c0 7f 2f 43 14 3e 97 48 c0
       -55.261848914953795 -49.18158200531524
0002c0 39 74 6f 16 ae fd 43 c0 a3 38 9c 7f 8a 15 39 c0
       -39.98187523309793 -25.084144569053603
0002d0 80 4d 51 5a 09 64 f9 3f 9f 88 74 db 5f 91 46 40
       1.586922982028085 45.13573783102151
0002e0 c9 04 25 46 ad 71 5a 40 5a 13 3a da 38 16 65 40
       105.77620080580813 168.6944399961747
0002f0 c6 17 69 a5 08 04 6c 40 53 97 77 a7 1d 84 70 40
       224.12605543638182 264.25723978724744
000300 cf 5a 08 eb 63 8c 72 40 a6 48 31 c9 ec c9 74 40
       296.7743940664631 332.620309059634
000310 cc 2f e1 53 05 d7 75 40 54 f1 a1 50 ac 13 73 40
       349.4388006969791 305.22956908472884
000320 90 5d 13 8b c3 ab 6b 40 d3 2f 8e 91 38 2a 61 40
       221.3676200273735 137.31940534373152
000330 e0 e9 07 df 21 89 49 40 79 f7 90 7c dd ff 35 c0
       51.07134616743474 -21.999473367111452
000340 a1 54 6e b8 11 0b 5d c0 42 1c 06 69 37 9b 67 c0
       -116.17295656942817 -188.85051394647058
000350 ef c5 04 cd e7 5e 6a c0 64 6f 71 16 23 dc 75 c0
       -210.96579600269567 -349.7585663252887
000360 01 1b 61 56 17 03 72 c0 9e 62 36 23 89 6a 5d c0
       -288.19319761211233 -117.6646202117067
000370 af 6b d0 f7 62 13 2e c0 55 1b e0 0c c9 31 38 c0
       -15.037864441101048 -24.194474034036222
000380 d4 9e 1b dc e1 08 48 c0 8f 07 40 d0 cb c1 32 c0
       -48.06939269398359 -18.757016196853836
000390 aa 6d 97 b8 29 b4 39 c0 45 5a 37 e0 60 78 28 c0
       -25.703761612863367 -12.235114104039107
0003a0 c3 dc b0 d9 06 3a 51 40 56 5f 2b 12 3d 2c 5b 40
       68.90666811248506 108.69122747645937
0003b0 d8 f5 11 c6 88 3d 56 40 30 d3 f4 0e db b0 56 40
       88.96147300485552 90.76337026508986
0003c0 00 00 00 c0 2d 1c df bf 00 00 00 e0 08 2e ff 3f
       -0.4860948920249939 1.948738932609558
0003d0 00 00 00 50 1a 54 e8 3f 00 00 00 d0 dc b8 f5 bf
       0.7602664530277252 -1.3576324582099915
0003e0 dc 55 04 e8 93 72 d7 bf 4e 59 12 4b 70 a0 01 c0
       -0.3663682714262373 -2.2033391823744415
0003f0 77 a3 3a 2e e1 30 12 c0 f4 06 a3 1d ff 61 18 c0
       -4.5477339957513925 -6.095699751925839
000400 75 a4 c1 4e ce d0 1f c0 24 4e 54 5b b3 2f 23 c0
       -7.953912001198764 -9.593165258446852
000410 b8 d6 fe a0 9b bc 29 c0 70 5d 2b 2e 49 06 30 c0
       -12.86837485419106 -16.02455414351192
000420 4e 32 d7 d3 1d c7 32 c0 76 e8 b2 f5 fd 33 35 c0
       -18.7777988815672 -21.20309386842606
000430 36 dd 87 cd 32 d7 35 c0 9c 2a 5e 53 47 73 38 c0
       -21.84061894003863 -24.450307093133787
000440 48 3a 1b c1 13 d2 38 c0 1b 1e a6 57 b5 0e 3b c0
       -24.820613927028063 -27.057454565101676
000450 89 d8 1f c2 f1 a5 38 c0 d5 89 16 79 63 f0 38 c0
       -24.648220188879836 -24.939017837526837
000460 0c 2d f0 0a 5c 29 37 c0 77 9e 7d a8 0e e5 33 c0
       -23.161560710560522 -19.89475491587515
000470 db db 7e fd f2 44 35 c0 be 30 b4 1e 56 86 34 c0
       -21.26933273646487 -20.524751585952565
000480 78 da 0e d2 a5 59 32 c0 df 23 a5 ae 0b 2b 30 c0
       -18.35018647062904 -16.16814700633756
000490 b0 57 8b 84 79 8a 2c c0 c2 15 9d 92 bf 3d 24 c0
       -14.270458356866442 -10.120602208781637
0004a0 18 e3 07 40 0f ff f1 3f ae 8d 75 41 ef 55 27 40
       1.1247704030230974 11.667841001128945
0004b0 90 e8 7c 98 1a e2 2b 40 ac 1f 88 66 09 1e 2f 40
       13.941609158752073 15.558665470234551
0004c0 d9 e8 c8 c5 5f ca e0 bf 8d d0 61 54 85 5b 3f c0
       -0.5247038710579331 -31.357503198509722
0004d0 43 57 89 d3 11 7f 50 c0 b9 10 3c b3 8e 99 5a c0
       -65.98546303188509 -106.39933472505335
0004e0 ba fc a7 8c 5e 78 60 c0 ee 0c bc b2 69 1b 61 c0
       -131.76154167947772 -136.85665261009802
0004f0 d2 5c 07 55 8b 46 5b c0 bd 7b a7 1e 60 b5 5c c0
       -109.10225415915491 -114.8339916835384
000500 4b 43 97 ca a6 28 60 c0 56 ba ee 2b e0 15 63 c0
       -129.27036027473 -152.68361469866312
000510 34 00 72 74 1a 2a 67 c0 a5 4b f1 87 7e 74 6d c0
       -185.31572935357838 -235.64044568183922
000520 33 08 a1 19 bb b7 71 c0 a8 53 81 ff 8e a9 73 c0
       -283.48317873862396 -314.5974116374805
000530 94 5c 97 61 a4 c7 75 c0 f8 e5 9d 1c 11 c9 77 c0
       -348.4776321327747 -380.5666776817229
000540 68 af 7a 3b 84 5e 74 c0 3c 09 c0 db 9f 76 6e c0
       -325.9072832863226 -243.7070139647202
000550 fa 4c bf 82 63 10 62 c0 ce 16 87 4f b9 9c 22 c0
       -144.51214730609337 -9.306101308098189
000560 f2 f4 76 86 7d b2 5d 40 50 d7 c5 02 a9 34 70 40
       118.78891145340802 259.29126240998903
000570 04 0b 39 cb fd 70 78 40 44 4e e9 bc 0e 91 78 40
       391.0619613865131 393.06609812865304
000580 d9 25 ad d0 ac 0c 71 40 58 1b 91 58 f1 42 70 40
       272.7921911967838 260.18392235452984
000590 0d 70 0a f3 64 3e 66 40 93 28 f9 5c 1d f9 50 40
       177.94982292212117 67.89241718608746
0005a0 04 d7 6e 98 11 8b 3d c0 75 9f 91 b8 ba 1a 5f c0
       -29.543237235126995 -124.41764654370293
0005b0 12 19 af 0d 05 5b 60 c0 26 f4 59 97 78 43 62 c0
       -130.84436687659087 -146.10847060746272
0005c0 ae 5a ce a3 d8 b9 b9 bf ac 92 52 52 d8 b6 fe bf
       -0.10049203871890697 -1.9196398940777426
0005d0 59 c8 85 ce 8e 81 0b c0 08 31 0c a9 f1 52 11 c0
       -3.4382606634690487 -4.330999986046898
0005e0 5e dd af 0d 8e 3b 0b c0 87 55 9a 30 2a b0 ef 3f
       -3.404079539231744 0.99025449269054
0005f0 e0 9e 9e c2 08 88 25 40 33 41 51 5d a5 28 35 40
       10.765691835272662 21.158773262345857
000600 7c f9 8d 14 e2 98 3f 40 1c 7f b2 fd a1 d5 44 40
       31.597199711477046 41.6690060731473
000610 4f 8e f2 2d 9f b0 47 40 bc 5d d9 1a 78 f3 48 40
       47.379857772288794 49.90210281003553
000620 0b 4e 5d 56 78 0b 47 40 5e 72 ba a0 27 89 41 40
       46.08960990482236 35.071521845854235
000630 e9 57 ee 7b 60 2e 0a c0 07 e5 de 1b 75 0e 3d c0
       -3.2726449663268693 -29.056474439542423
000640 d7 15 42 ef b3 02 49 c0 02 ea 34 3e d7 e8 4c c0
       -50.02111616827795 -57.81906869491287
000650 ad 2d e6 d2 9f 14 44 c0 e4 01 b3 7c 4a c5 47 c0
       -40.16112743605786 -47.541335666089964
000660 d2 7a b8 d6 aa 78 4b c0 45 5a a7 23 3b 7e 4e c0
       -54.9427135849743 -60.986179787364144
000670 37 29 0a 1b 25 7f 50 c0 7e de 57 b1 d1 77 4f c0
       -65.98663974754605 -62.93608681478962
000680 46 a7 cb 69 ae b7 4d c0 63 bd 9d fa 4d 12 35 c0
       -59.43501017040266 -21.071502364645664
000690 f3 c3 b2 cf 45 29 43 40 a6 0a ff cd 53 ab 5c 40
       38.3224429724577 114.67699003130346
0006a0 29 4b 90 52 2e 7f 68 40 f6 56 44 ad 3c 2b 71 40
       195.97440460378974 274.7023136777419
0006b0 4e 35 7c 77 85 bc 73 40 02 e9 72 f2 bb ab 76 40
       315.78258465308033 362.7333855141334
0006c0 ce fb fa 9e 0b 08 79 40 ad af ed 3e c0 0d 7a 40
       400.5028371624038 416.85943501325784
0006d0 4f bb b1 ba cb bc 72 40 d2 d3 73 64 b2 91 71 40
       299.79973859239993 281.1060528301724
0006e0 8d 1b 90 21 78 23 6f 40 62 e3 78 b6 7b bd 6b 40
       249.10841444154758 221.92135165797214
0006f0 57 3c c8 35 e6 24 65 40 0d 4c 73 e0 65 5f 58 40
       169.15310181721244 97.49059306392174
000700 b8 13 be 96 c8 76 44 40 11 7d 80 aa f0 4d 20 c0
       40.927996485529945 -8.15222676104034
000710 74 95 24 e7 c7 b8 4c c0 94 54 ae 93 16 4f 68 c0
       -57.44360055242842 -194.4715059666529
000720 c7 98 bd 92 05 4c 68 c0 3d 5f 2f 6b 0a 56 68 c0
       -194.37568032293913 -194.6887718129382
000730 14 b2 d4 0d 13 f7 69 c0 82 6d 72 e9 68 a9 6b c0
       -207.72107593099702 -221.29405662869618
000740 f4 d2 95 6b 79 55 6d c0 78 36 c8 33 bb e0 6b c0
       -234.67107180845744 -223.0228518400579
000750 ce 30 fa 73 64 6f 66 c0 59 93 fe 4a 9b be 36 c0
       -179.48101233353958 -22.744557082321396
000760 24 7a ad f6 80 18 4e 40 19 0f e4 68 9c 88 63 40
       60.191435656266805 156.2690929846074
000770 98 2d 4e 6a 4c cd 63 40 b1 23 fb 0d f6 96 60 40
       158.41557803410683 132.71753596354168
000780 45 4a 2b 16 af 0e 53 40 09 e1 18 c1 9d 3f 20 c0
       76.22943643786955 -8.124250444685929
000790 be 9b 46 ce 4a 90 42 c0 b8 aa d2 5a 07 21 60 c0
       -37.12728289077448 -129.03214779992936
0007a0 00 00 00 40 96 f6 cb 3f 00 00 00 40 61 79 f9 3f
       0.218462735414505 1.5921337604522705
0007b0 00 00 00 18 05 3f fc 3f 00 00 00 80 8e 71 ed bf
       1.7653857171535492 -0.920111894607544
0007c0 b1 d7 28 7d 38 c2 e3 3f cf 40 38 24 ad 55 f7 bf
       0.6174585766336717 -1.4584170737107802
0007d0 32 50 e4 69 d9 a8 0f c0 f8 47 51 5b a6 85 18 c0
       -3.9574459336090735 -6.130517412982947
0007e0 51 52 69 96 9c 1f 21 c0 30 f4 f4 55 d2 eb 25 c0
       -8.561741543156275 -10.960589109565348
0007f0 84 8a e4 4e 10 b3 2b c0 4a 6e 0d e3 52 76 31 c0
       -13.84973379649933 -17.462202254084595
